[2024-12-26 01:25:10][base_learner.py:338][INFO] [RANK0]: DI-engine DRL Policy
MAVAC(
  (actor_encoder): Identity()
  (critic_encoder): Identity()
  (critic_head): Sequential(
    (0): Linear(in_features=442, out_features=512, bias=True)
    (1): Tanh()
    (2): RegressionHead(
      (main): Sequential(
        (0): Linear(in_features=512, out_features=512, bias=True)
        (1): Tanh()
      )
      (last): Linear(in_features=512, out_features=1, bias=True)
    )
  )
  (actor_head): Sequential(
    (0): Linear(in_features=174, out_features=256, bias=True)
    (1): Tanh()
    (2): DiscreteHead(
      (Q): Sequential(
        (0): Sequential(
          (0): Linear(in_features=256, out_features=256, bias=True)
          (1): Tanh()
          (2): Linear(in_features=256, out_features=256, bias=True)
          (3): Tanh()
        )
        (1): Sequential(
          (0): Linear(in_features=256, out_features=4, bias=True)
        )
      )
    )
  )
  (actor): ModuleList(
    (0): Identity()
    (1): Sequential(
      (0): Linear(in_features=174, out_features=256, bias=True)
      (1): Tanh()
      (2): DiscreteHead(
        (Q): Sequential(
          (0): Sequential(
            (0): Linear(in_features=256, out_features=256, bias=True)
            (1): Tanh()
            (2): Linear(in_features=256, out_features=256, bias=True)
            (3): Tanh()
          )
          (1): Sequential(
            (0): Linear(in_features=256, out_features=4, bias=True)
          )
        )
      )
    )
  )
  (critic): ModuleList(
    (0): Identity()
    (1): Sequential(
      (0): Linear(in_features=442, out_features=512, bias=True)
      (1): Tanh()
      (2): RegressionHead(
        (main): Sequential(
          (0): Linear(in_features=512, out_features=512, bias=True)
          (1): Tanh()
        )
        (last): Linear(in_features=512, out_features=1, bias=True)
      )
    )
  )
)
[2024-12-26 01:25:29][base_learner.py:338][INFO] [RANK0]: learner save ckpt in ./sumo_wj3_mappo_1500step_256batch_clip/ckpt/ckpt_best.pth.tar
[2024-12-26 01:26:16][base_learner.py:338][INFO] [RANK0]: === Training Iteration 0 Result ===
[2024-12-26 01:26:16][learner_hook.py:224][INFO] 
+-------+------------+----------------+-----------------+----------------+
…
