[2025-02-20 17:21:13][base_learner.py:338][INFO] [RANK0]: DI-engine DRL Policy
MAVAC(
  (actor_encoder): Identity()
  (critic_encoder): Identity()
  (critic_head): Sequential(
    (0): Linear(in_features=442, out_features=512, bias=True)
    (1): Tanh()
    (2): RegressionHead(
      (main): Sequential(
        (0): Linear(in_features=512, out_features=512, bias=True)
        (1): Tanh()
      )
      (last): Linear(in_features=512, out_features=1, bias=True)
    )
  )
  (actor_head): Sequential(
    (0): Linear(in_features=174, out_features=256, bias=True)
    (1): Tanh()
    (2): DiscreteHead(
      (Q): Sequential(
        (0): Sequential(
          (0): Linear(in_features=256, out_features=256, bias=True)
          (1): Tanh()
          (2): Linear(in_features=256, out_features=256, bias=True)
          (3): Tanh()
        )
        (1): Sequential(
          (0): Linear(in_features=256, out_features=4, bias=True)
        )
      )
    )
  )
  (actor): ModuleList(
    (0): Identity()
    (1): Sequential(
      (0): Linear(in_features=174, out_features=256, bias=True)
      (1): Tanh()
      (2): DiscreteHead(
        (Q): Sequential(
          (0): Sequential(
            (0): Linear(in_features=256, out_features=256, bias=True)
            (1): Tanh()
            (2): Linear(in_features=256, out_features=256, bias=True)
            (3): Tanh()
          )
          (1): Sequential(
            (0): Linear(in_features=256, out_features=4, bias=True)
          )
        )
      )
    )
  )
  (critic): ModuleList(
    (0): Identity()
    (1): Sequential(
      (0): Linear(in_features=442, out_features=512, bias=True)
      (1): Tanh()
      (2): RegressionHead(
        (main): Sequential(
          (0): Linear(in_features=512, out_features=512, bias=True)
          (1): Tanh()
        )
        (last): Linear(in_features=512, out_features=1, bias=True)
      )
    )
  )
  (_agent_encoder): AgentEncoder(
    (encoder): Sequential(
      (0): Linear(in_features=174, out_features=4, bias=True)
    )
  )
  (_cls_encoder): ClsEncoder(
    (encoder): GCN(
      (conv1): GCNConv(174, 4)
      (conv2): GCNConv(4, 4)
    )
  )
  (_self_attn): SelfAttention(
    (query): Linear(in_features=4, out_features=4, bias=True)
    (key): Linear(in_features=4, out_features=4, bias=True)
    (value): Linear(in_features=4, out_features=4, bias=True)
  )
  (_cros_attn): CrosAttention(
    (query): Linear(in_features=4, out_features=4, bias=True)
    (key): Linear(in_features=4, out_features=4, bias=True)
    (value): Linear(in_features=4, out_features=4, bias=True)
  )
)
[2025-02-20 17:21:39][base_learner.py:338][INFO] [RANK0]: learner save ckpt in ./mappo_3roads_base_test_myself_250220_172109/ckpt/ckpt_best.pth.tar
[2025-02-20 17:22:25][base_learner.py:338][INFO] [RANK0]: === Training Iteration 0 Result ===
[2025-02-20 17:22:25][learner_hook.py:224][INFO] 
+-------+------------+----------------+-----------------+----------------+
…
